my_trained_model.pt (torch, 320100 bytes, 31 tensors)

encoder.0.weight f4 [32, 1, 4, 4]
0	0x3e61da1f	0.22055863
1	0xbd8a5633	-0.067547224
2	0x40362355	2.8459065
3	0xbe084813	-0.13308744
4	0xbea5c455	-0.32376352
5	0xbe844550	-0.2583413
6	0x408913c3	4.2836623
7	0x3dd923ec	0.10602555
8	0x3d3212c7	0.04347494
9	0x3e91883d	0.28424254
10	0xc08467e9	-4.1376843
11	0x3e8257e8	0.25457692
12	0x3e5e1e54	0.21691257
13	0xbc7bc564	-0.015366886
14	0xc0347dcb	-2.8201778
15	0x3d424c57	0.047436085
16	0x3e561d4c	0.20909613
17	0x3ef72dd1	0.48277143
18	0xbd44477c	-0.047919735
19	0xbe01ec60	-0.12687826
20	0x3eef72d0	0.46767282
21	0x3ef639ef	0.48091075
22	0x3f441122	0.7658864
23	0x3e2746ab	0.16335551
24	0x3d312e7f	0.043257233
25	0x3eaf2503	0.34207925
26	0x3f21ca68	0.6319947
27	0xbe46d3db	-0.19416754
28	0xbe128606	-0.14308938
29	0x3e8d19d0	0.27558756
30	0x3fb046e8	1.3771639
31	0x3e6255b2	0.22103003
32	0x3c876a8c	0.016530298
33	0x3ea6c90e	0.32575268
34	0x410f362d	8.9507265
35	0xbe801145	-0.25013176
36	0x3e4728e7	0.19449197
37	0x3e6cc574	0.23122197
38	0x3f571707	0.8401951
39	0xbe7370d8	-0.23773515
40	0xbd6a4b8f	-0.057200965
41	0xbebd8d46	-0.37021846
42	0xc074bf26	-3.8241668
43	0x3e445269	0.19172062
44	0xbe9c6d5f	-0.30552194
45	0x3d3cdb0e	0.046107344
46	0xbe397e26	-0.18114528
47	0x3d81a0a6	0.063294694
48	0xbe2fb105	-0.17157371
49	0x3df4f359	0.119604774
50	0x402ad876	2.6694617
51	0xbdf3ec86	-0.11910348
52	0x3e87286b	0.26398024
53	0x3e289967	0.16464768
54	0x3fb5064e	1.4142549
55	0xbd27e072	-0.040985532
56	0x3da7e667	0.08198243
57	0x3e5f23ed	0.21791048
58	0x3ffce966	1.9758728
59	0x3d0307c9	0.031989846
60	0x3f5c234b	0.8599135
61	0x3efc6c1a	0.49301225
62	0x40004f6b	2.0048473
63	0x3da05100	0.078279495
64	0xbe5c4939	-0.21512307
65	0xbd260ce7	-0.04053965
66	0xc05ed241	-3.4815829
67	0xbd86a078	-0.06573576
68	0x3de629ea	0.11238463
69	0xbe3e8492	-0.18605259
70	0xbf923f88	-1.1425638
71	0x3ddbd51b	0.10734006
72	0xbd1c8d79	-0.038220856
73	0x3e3add9d	0.18248601
74	0x3ebc2ddf	0.36753747
75	0x3e8828e4	0.26593697
76	0xbcc133b9	-0.023584234
77	0x3e89af3e	0.26891512
78	0x409d8916	4.922984
79	0x3dcf8b70	0.101340175
80	0x40651dd2	3.579945
81	0x4058d075	3.3877232
82	0x3ee609cf	0.44929358
83	0xbe5f0706	-0.21780023
84	0x402b9f89	2.6816123
85	0x4012bce4	2.292779
86	0xbf20f5e7	-0.6287522
87	0xbe1bd53a	-0.15218058
88	0x4023aee8	2.5575504
89	0x4032d9a5	2.794534
90	0xbf1803c0	-0.5938072
91	0xbe5e8f3a	-0.21734324
92	0x40206cc0	2.5066376
93	0x4035ed60	2.8426132
94	0x3ee0b74b	0.4388984
95	0x3c9a089d	0.018802935
96	0x3e075132	0.13214567
97	0x3d8286f6	0.06373398
98	0x4033b53f	2.8079374
99	0xbb491381	-0.0030681791
100	0xbdd0edcf	-0.102016084
101	0xbcbd939a	-0.023141671
102	0xc08295d1	-4.080788
103	0x3eec1987	0.46113226
104	0xbd265256	-0.040605865
105	0x3d95e55a	0.07319136
106	0x40557b86	3.3356643
107	0x3dfecb13	0.12441077
108	0xbe17901f	-0.14801072
109	0xbe66b98d	-0.2253172
110	0xc0063f23	-2.0976036
111	0x3ec86b41	0.39144328
112	0x3e8dc17d	0.27686682
113	0x3ef13ef4	0.47118342
114	0x3fb41058	1.4067488
115	0x3dd2ce47	0.102932505
116	0x3e1a9bcc	0.15098494
117	0x3ece26a2	0.4026385
118	0x3f8cb7ea	1.0993626
119	0xbe1b5bed	-0.15171786
120	0x3eb4631d	0.35231867
121	0x3e6eafde	0.23309276
122	0x3f10a41d	0.56500417
123	0xbc5e138d	-0.013554466
124	0x3e818405	0.25296035
125	0x3f024d0b	0.5089881
126	0x3f3a0296	0.72660196
127	0xbd032472	-0.03201718
128	0xbd90158b	-0.07035359
129	0x3e5c3c5d	0.21507402
130	0x407f5d1a	3.9900575
131	0x3d344f42	0.0440209
132	0xbd770ef6	-0.060317002
133	0x3de69e20	0.11260629
134	0xbfe1bcae	-1.7635705
135	0x3a70e5ac	0.0009189497
136	0xbeaa8087	-0.33301184
137	0xbe8380cb	-0.256842
138	0x3fa51980	1.2898407
139	0x3e47c995	0.19510491
140	0xbebfcbf6	-0.37460297
141	0xbdc73b60	-0.09728122
142	0x40296ad6	2.6471457
143	0xbe392135	-0.18079074
144	0xbf824a71	-1.0178968
145	0xbf16cc56	-0.5890554
146	0x3faca7d5	1.3488718
147	0x3dded27d	0.10879991
148	0x3d6f3bb6	0.058406554
149	0x3e81c39e	0.25344557
150	0x3f1ed6f9	0.6204677
151	0xbe921429	-0.28531006
152	0xbde5944d	-0.11209927
153	0x3e81190d	0.25214425
154	0x3f795df5	0.9740899
155	0xbdd96ba1	-0.10616232
156	0xbcc3d55f	-0.023905454
157	0x3f164129	0.58693177
158	0xc031573f	-2.77095
159	0x3e31b9c3	0.17356019
160	0xc004ce6b	-2.0750988
161	0xbfdc55c2	-1.7213671
162	0x3f18321a	0.5945145
163	0xbe4f5f22	-0.20251134
164	0xbf7ba972	-0.9830543
165	0xbf9cd8ae	-1.2253625
166	0x3ebb789c	0.36615455
167	0xbd99a27c	-0.075016946
168	0xbf4fedd8	-0.81222296
169	0xbf5fb110	-0.8737955
170	0x3e0b2338	0.13587654
171	0xbe3457b7	-0.17611586
172	0xbef14a86	-0.4712717
173	0xbf1e80f8	-0.6191554
174	0x3f1e3846	0.61804616
175	0x3d5d9186	0.05409386
176	0xbf9b0307	-1.2110299
177	0xbf782576	-0.9693216
178	0x3fa4f41a	1.2886994
179	0xbe4f261e	-0.20229384
180	0xbede5689	-0.43425396
181	0xbf017f7c	-0.5058515
182	0x3f9cc068	1.2246218
183	0xbe2594d8	-0.1617006
184	0xbeb2a92c	-0.34894693
185	0xbdb741ba	-0.08948083
186	0x3f49b3d9	0.7879005
187	0xbe64c15c	-0.22339386
188	0xbeee3cf2	-0.46530873
189	0xbf07318f	-0.52809995
190	0x3f4770ef	0.779067
191	0x3e5e46b4	0.21706659
192	0xbf1b6f71	-0.6071692
193	0xbe3075b3	-0.17232399
194	0x3f994e9d	1.1977116
195	0x3e4b041a	0.19825783
196	0xbf0827ce	-0.5318574
197	0xbe8a5d1b	-0.2702416
198	0x3e520320	0.20509005
199	0x3e1d7bb7	0.15379225
200	0x3bf3d305	0.007440927
201	0xbeb95b01	-0.36202243
202	0x3fbcd1e8	1.4751558
203	0x3e2559c2	0.16147521
204	0xbef98f5f	-0.48742196
205	0xbe08a021	-0.13342334
206	0x3f830b2b	1.0237783
207	0xbe36fef2	-0.17870691
208	0xbffdd1d8	-1.9829664
209	0xbe107bce	-0.14109728
210	0xbf501b54	-0.812917
211	0x3e1b9e00	0.15196991
212	0xc00b0d8a	-2.1727014
213	0xbec4695f	-0.38361642
214	0x3fbc262c	1.4699149
215	0xbd0bda88	-0.034143955
216	0xbe0ab552	-0.1354573
217	0x3fbd7a78	1.4803
218	0xbf8327d0	-1.0246525
219	0xbe538833	-0.20657425
220	0xbf678a38	-0.9044528
221	0x3eddab03	0.43294534
222	0xbcf4bb4c	-0.029874466
223	0xbe0a3061	-0.13495018
224	0xc0a10b4b	-5.0326285
225	0xc1152c5f	-9.323333
226	0xbdf3f1fb	-0.119113885
227	0xbe9ab633	-0.30217132
228	0x405a6a0d	3.4127228
229	0x3e124cb6	0.14287075
230	0x3f2bc352	0.6709491
231	0xbd955a27	-0.07292586
232	0x3ff1d112	1.8891928
233	0x3db927cd	0.090407945
234	0xbe5d963c	-0.21639341
235	0xbd424e23	-0.0474378
236	0x3f71347f	0.9422073
237	0xbd826840	-0.0636754
238	0xbe916d74	-0.2840382
239	0xbe3792ff	-0.17927168
240	0x3f972a2f	1.1809748
241	0x3f982590	1.1886463
242	0x3f583dcb	0.8446929
243	0xbe63cbbe	-0.2224569
244	0x3ef4850a	0.4775775
245	0x3f1507c4	0.58214974
246	0x3ea59477	0.32339832
247	0x3e2499a3	0.16074233
248	0x3f8c7afd	1.0975033
249	0x3f249e5a	0.64304125
250	0x3ea716da	0.32634622
251	0xbe61b472	-0.2204149
252	0x402c01ce	2.6876101
253	0x4024a1f4	2.5723848
254	0x3f438f9c	0.76391006
255	0x3e72ef96	0.23724207

encoder.0.bias f4 [32]
0	0xbe8fb983	-0.28071222
1	0xbdc1dd45	-0.09466032
2	0x3e409512	0.18806866
3	0xbd08aeb1	-0.033369724
4	0x3ddd742c	0.10813174
5	0x3e38cc04	0.18046576
6	0x3ebbcf55	0.3668162
7	0xbde6a06a	-0.11261065
8	0x3e551512	0.20808819
9	0xbe28beb3	-0.16478996
10	0xbdc622f1	-0.09674633
11	0xbd5ef98f	-0.054437216
12	0xbdaf6da5	-0.08565835
13	0xbe65374d	-0.22384377
14	0xbe903bcb	-0.28170618
15	0x3decdf2e	0.11566006
16	0x3e238187	0.1596738
17	0x3e83f553	0.25773105
18	0x3e14d2df	0.14533566
19	0x3d90750c	0.07053575
20	0xbef590ed	-0.47962132
21	0x3e3827e7	0.17983972
22	0xbd5d852c	-0.05408208
23	0x3d8ac1b5	0.06775228
24	0x3dd10efd	0.10207937
25	0xbdfa686f	-0.122269504
26	0x3e4b799d	0.1987061
27	0x3e73ff2a	0.23827806
28	0x3d9b6fad	0.0758966
29	0xbe549cff	-0.20763014
30	0xbe3b57c4	-0.18295199
31	0x3e72112d	0.23639365

encoder.1.weight f4 [32]
0	0x4068c962	3.6372914
1	0xbc5c3ffd	-0.01344299
2	0x3fda0d19	1.7035247
3	0x3e8975c9	0.26847675
4	0x3ff4b9ae	1.9119165
5	0x3fb10d51	1.3832189
6	0x3f924e55	1.1430155
7	0x3d9822c4	0.07428506
8	0x3f2a94a5	0.66633064
9	0x3ebbcca8	0.36679578
10	0x3f64b871	0.89343935
11	0x3f235cd6	0.6381353
12	0x3d7a4e5f	0.061109897
13	0x3f9541fc	1.1660762
14	0x3db910a4	0.09036377
15	0x3f4750e4	0.77857804
16	0x3e0f0e48	0.13970292
17	0x3f6662d3	0.89994544
18	0x409412a9	4.627278
19	0x3edd10bf	0.4317684
20	0x3de059f8	0.1095466
21	0x3ec723d5	0.38894525
22	0x3fa10a16	1.2581203
23	0x3d3fe7a0	0.046851754
24	0x3fc9df74	1.5771317
25	0x3f97b89c	1.1853213
26	0x3ef23e43	0.47313127
27	0x3f7e3cb6	0.9931139
28	0x3df4f9b1	0.11961687
29	0x3f9efb4f	1.2420443
30	0x408c0afc	4.376341
31	0x3f0bbb76	0.5458292

encoder.1.bias f4 [32]
0	0xbee978d9	-0.45600012
1	0x4072d990	3.794529
2	0xbf5f8998	-0.87319326
3	0xbf17f264	-0.59354234
4	0xbe7488b1	-0.23880269
5	0x4017c0de	2.3711467
6	0xbddd9e62	-0.10821225
7	0x407f3598	3.987646
8	0x3f4bcfa4	0.7961371
9	0xbe1ba6f9	-0.15200414
10	0xc006bd84	-2.105317
11	0x3fbfe69e	1.4992254
12	0x40524d75	3.2859776
13	0x3f08afbc	0.5339315
14	0xbe36a901	-0.17837907
15	0xbff7d20d	-1.9360977
16	0x405fab11	3.494816
17	0x3fd9cbfb	1.7015375
18	0xbff593aa	-1.9185688
19	0xbf13711b	-0.5759446
20	0xbe19968a	-0.14998832
21	0x3e093d13	0.13402204
22	0xbf349fcf	-0.7055635
23	0xc079b4db	-3.9016635
24	0xbe54ad8c	-0.20769328
25	0x3fbbbb25	1.4666487
26	0x3f7e9ab8	0.9945483
27	0xbedbfacd	-0.42964783
28	0xbdfce23d	-0.12347839
29	0x3df83a36	0.12120478
30	0xbe121967	-0.14267503
31	0x3f5ffd3d	0.87495786

encoder.1.running_mean f4 [32]
0	0x3e1d9f14	0.15392715
1	0x402281cb	2.539172
2	0x4078478d	3.879367
3	0x40c131ad	6.037314
4	0x3f73ef0a	0.9528662
5	0x40e39527	7.111957
6	0x3f9bca24	1.2171063
7	0x40502d03	3.2527473
8	0x408360b4	4.1055546
9	0xbec13b22	-0.37740427
10	0xc01678ba	-2.3511186
11	0x3f3e64e9	0.74372727
12	0x3ffecbc5	1.9905936
13	0xc00138aa	-2.0190835
14	0xc06325b2	-3.5491757
15	0x40a4a2a9	5.144856
16	0xbb445a3c	-0.002996101
17	0x3eb2844c	0.3486656
18	0xc17a34ad	-15.63786
19	0x3e96a037	0.2941911
20	0xc0bf2a80	-5.973938
21	0xbe8b2e67	-0.2718384
22	0x41003c7d	8.014768
23	0xbfa1d7e0	-1.2644005
24	0xc08e9022	-4.4550943
25	0xc069f108	-3.6553364
26	0xbeda58ae	-0.42645782
27	0x409713f6	4.7211866
28	0xc01fcc0c	-2.496829
29	0xbf123b9b	-0.571222
30	0xbee8f1aa	-0.45496875
31	0x409f371c	4.975477

encoder.1.running_var f4 [32]
0	0x3dfd6d72	0.12374391
1	0x3ec74bf6	0.3892514
2	0x3f0e1fd4	0.55517316
3	0x3f820c5a	1.0160019
4	0x3dd78276	0.1052293
5	0x41f575bd	30.68249
6	0x3db1f757	0.086897545
7	0x3f203e61	0.6259518
8	0x3ee8cf47	0.4547064
9	0x3d4a69c5	0.049417276
10	0x40934a76	4.6028395
11	0x3facdef0	1.3505535
12	0x3f038ae6	0.5138382
13	0x3f6790d0	0.9045534
14	0x4072b4fc	3.7922964
15	0x40d4756c	6.6393337
16	0x3cc17146	0.023613583
17	0x3dd0591d	0.10173247
18	0x40c7eaf6	6.2474318
19	0x3d8a75a0	0.067607164
20	0x4113891a	9.220972
21	0x3d3f4a9a	0.046702005
22	0x3fe71a8e	1.8054979
23	0x3ff1071d	1.8830296
24	0x3f959140	1.1684952
25	0x3eaf2d0b	0.34214053
26	0x3d71e3c9	0.059055123
27	0x3f7d107f	0.98853296
28	0x403a8a88	2.9147053
29	0x40331723	2.7982872
30	0x3de6196e	0.11235319
31	0x3f76edba	0.9645649

encoder.3.weight f4 [64, 32, 2, 1]
0	0x3cb57bd8	0.02215378
1	0x3e13454f	0.14381908
2	0x3e30325e	0.17206714
3	0xbcd4cfab	-0.02597793
4	0xbdaf5df0	-0.08562839
5	0x3eb2a27c	0.3488959
6	0x3f87aecb	1.0600218
7	0x3f0cd5b8	0.5501361
8	0x3ef2163d	0.4728259
9	0xbf7f72ff	-0.99784845
10	0xbfdae6bf	-1.7101668
11	0xbfe27402	-1.7691653
12	0x3f26218a	0.64894927
13	0xbe8c7d8b	-0.27439532
14	0x3ed11e39	0.4084337
15	0x3e677f7c	0.22607225
16	0x3f30049e	0.68757045
17	0xbe2c2181	-0.16809656
18	0x4002880e	2.039554
19	0x40d41516	6.627574
20	0x3f453ffd	0.77050763
21	0x3edfa4fb	0.43680558
22	0xbe6d1f1a	-0.23156396
23	0xbee38d8c	-0.4444393
24	0xbe2b5527	-0.16731702
25	0xbf291344	-0.6604502
26	0xbf6552a7	-0.8957924
27	0x3d191c8d	0.037380744
28	0x40874823	4.2275558
29	0x4068f4a3	3.6399314
30	0xbeff5934	-0.49872744
31	0xbf432e0f	-0.76242155
32	0x3f421850	0.7581835
33	0x3e1fa8f9	0.15591802
34	0xbc5bc0d3	-0.013412672
35	0x3f92a63b	1.145698
36	0x3dd005a2	0.101573244
37	0xbd3e6e10	-0.046491683
38	0x400ad018	2.168951
39	0x407225b8	3.7835522
40	0x408c8607	4.3913608
41	0x4073b1bd	3.8077233
42	0xbfbad1a9	-1.4595233
43	0xc02470f1	-2.5693934
44	0x3ea5fd24	0.32419693
45	0xbeaa39e8	-0.33247304
46	0x3f9a5dd4	1.2059884
47	0x3f45745b	0.7713067
48	0x3d963b08	0.07335478
49	0x3e4e9bb6	0.20176587
50	0x3f07e1ef	0.5307912
51	0x3f3d224b	0.7388045
52	0xbf1731c7	-0.5906033
53	0x3fd0bfd6	1.6308544
54	0x3ebe0c3b	0.37118706
55	0xbcd6b561	-0.026209535
56	0x408df9b7	4.436733
57	0x400f3418	2.2375546
58	0xbe227efb	-0.15868752
59	0xbda866ca	-0.082227305
60	0x3dfed377	0.124426775
61	0x3e4b5971	0.19858338
62	0x3e356b38	0.17716682
63	0xbebf9dc2	-0.37425047
64	0xc072bdc5	-3.7928326
65	0x402043a3	2.5041282
66	0x3dc363f0	0.09540546
67	0x3dc4ac48	0.096031725
68	0xc05b111e	-3.4229198
69	0x403c3633	2.940808
70	0xbf30318e	-0.68825614
71	0x3e4e96eb	0.20174758
72	0x40208e04	2.508668
73	0x3ed71848	0.42010713
74	0x3e18190a	0.14853302
75	0x3ea7a25e	0.32741064
76	0xbf566a6b	-0.8375613
77	0x3f901695	1.1256891
78	0xbe3c7a39	-0.18405999
79	0x3e0f8dac	0.14018887
80	0xbf6ab858	-0.91687536
81	0xbbe8b405	-0.007101538
82	0xbec4c737	-0.3843324
83	0x3ed00c66	0.4063446
84	0x3e1a3339	0.15058602
85	0xbdf042ca	-0.11731489
86	0x3d96652e	0.07343517
87	0x3e89b4b1	0.2689567
88	0x3e97bab6	0.29634637
89	0x3ecc0f8f	0.3985562
90	0x3f3f99cf	0.7484407
91	0xbddbbdd6	-0.10729568
92	0xbe3addd7	-0.18248688
93	0xbe7d4099	-0.24731673
94	0xbef1b3f1	-0.47207597
95	0x3e7fa51b	0.24965326
96	0x3c0a5809	0.008443841
97	0x3f51ce64	0.8195555
98	0xbd9ada39	-0.07561154
99	0x3eb04033	0.3442398
100	0x3e2ec820	0.17068529
101	0x3cafaafe	0.02144384
102	0xbf9b9d78	-1.2157431
103	0x3e265fa9	0.16247429
104	0x3c057e67	0.008147812
105	0xbe1b2877	-0.15152155
106	0x3fa022de	1.2510641
107	0xbec40de1	-0.3829184
108	0x3f52559a	0.8216187
109	0x3db30338	0.08740848
110	0xbe837b8b	-0.25680193
111	0xbd9b6564	-0.07587698
112	0x3f55d41d	0.83526784
113	0x3e85a251	0.261004
114	0x3f84c46d	1.0372444
115	0x3f3e3323	0.7429678
116	0x3ecfe6ee	0.40605873
117	0x3f6de794	0.92931485
118	0xbe3d79eb	-0.1850354
119	0x3d1ef213	0.03880508
120	0x3e88504e	0.26623768
121	0xbd88ddbb	-0.06682917
122	0xbf1651ce	-0.58718574
123	0xbf2bc4f1	-0.67097384
124	0xbf986da8	-1.1908464
125	0x3f94783c	1.1599193
126	0xbee85b0d	-0.45381966
127	0xbe9fc3ee	-0.3120417
128	0xbf80c034	-1.0058656
129	0x3f3b6da7	0.7321419
130	0xbeb68707	-0.35649893
131	0xbeb5f1c3	-0.35536012
132	0x3eeb2132	0.45923764
133	0x3eb6bd68	0.3569138
134	0xbfa006ad	-1.2502037
135	0xbf2780e9	-0.65431076
136	0x3e2c0515	0.16798814
137	0x3fa02039	1.2509834
138	0x3fb108b5	1.3830782
139	0x3fc2e928	1.5227404
140	0xbf99e7fe	-1.2023923
141	0xbf8cc6a2	-1.0998118
142	0xbf254308	-0.64555407
143	0xbec51f38	-0.3850038
144	0xbe105565	-0.14095075
145	0x3f5bdeb8	0.85886717
146	0xbe885d20	-0.2663355
147	0xc0200157	-2.5000818
148	0xbfac4753	-1.3459266
149	0xbf809173	-1.0044388
150	0xbf935bf2	-1.1512434
151	0xbf7c05af	-0.9844617
152	0xbf2823d5	-0.65679675
153	0xbdbc4a83	-0.091938995
154	0x3f2a5986	0.6654285
155	0x3e04d537	0.1297196
156	0xc026f48b	-2.6086757
157	0xc028dd75	-2.6385167
158	0x3fb254dc	1.3932147
159	0x3fc313bc	1.5240397
160	0xbfbb7437	-1.4644841
161	0xbce8ec74	-0.028433062
162	0x3f79240c	0.9732063
163	0xbf969089	-1.1762859
164	0x3db8fe80	0.09032917
165	0xbe9d2b3c	-0.30697048
166	0xbf80dace	-1.0066774
167	0xc02ecde7	-2.7313173
168	0xc0538907	-3.3052385
169	0xc04882fb	-3.1329944
170	0x4017ed80	2.3738708
171	0x3eedd045	0.4644796
172	0xbeec4cfb	-0.4615248
173	0xbd89eae6	-0.067342564
174	0xbf6648a3	-0.89954585
175	0xbf2b5034	-0.66919255
176	0x3cce545b	0.025186708
177	0xbef21d05	-0.47287765
178	0x3ee3e013	0.44506893
179	0xbbf6c3d8	-0.0075306706
180	0x404efbf0	3.234127
181	0xbfffa4ca	-1.9972165
182	0xbf2d3eb4	-0.676738
183	0xbef41be7	-0.47677538
184	0xc0383346	-2.8781295
185	0xc016c626	-2.355844
186	0xbc814a72	-0.015782569
187	0x3e89be5a	0.2690304
188	0x3e8a7147	0.2703955
189	0x3ec81efa	0.39086133
190	0xbf31da29	-0.6947351
191	0xbe6a02f1	-0.22852685
192	0x3fc418e8	1.5320101
193	0xc025329b	-2.5812137
194	0x3c5c5e40	0.013450205
195	0x3d8c798b	0.0685912
196	0x3eaf99e7	0.34297106
197	0xbf8ba715	-1.0910364
198	0x3f0619c1	0.5238305
199	0x3e3999f6	0.18125138
200	0xbeeeabcc	-0.46615446
201	0x401538b4	2.331586
202	0x3f7d410c	0.9892738
203	0x3f56440c	0.8369758
204	0x3fa92632	1.3214781
205	0xbfcd5f92	-1.6044791
206	0x3dd92649	0.106030054
207	0x3e4cb330	0.1999023
208	0x3e6e2676	0.23256859
209	0x38a943e3	8.071193e-05
210	0x3f887cbc	1.0663066
211	0xbfb733ca	-1.431268
212	0xbf6d1e8d	-0.9262474
213	0xbe9c790c	-0.305611
214	0xbe0e69d7	-0.13907562
215	0xbe6de2ba	-0.2323102
216	0xbe872388	-0.26394296
217	0xbf01c0fe	-0.5068511
218	0xbed94dd4	-0.4244219
219	0xbbe722e8	-0.0070537217
220	0xbeaef164	-0.3416854
221	0x3de6c449	0.11267907
222	0xbe8cc74f	-0.2749581
223	0xbe8175c6	-0.25285167
224	0x3f685172	0.90749276
225	0xbdcb1860	-0.099167585
226	0x3f1d556b	0.6145846
227	0xbffa9723	-1.9577373
228	0xbd8a2004	-0.06744388
229	0x3dc278cd	0.09495697
230	0x3f8ddb1a	1.108249
231	0xbfa02ee5	-1.2514311
232	0xbe4ac029	-0.19799866
233	0x3db9ba61	0.09068752
234	0xbfc215d1	-1.5162908
235	0x3f3a8692	0.7286159
236	0xbec2b14e	-0.38025898
237	0x3d4ba1c7	0.04971483
238	0xbc518e08	-0.012790211
239	0xbda4ff97	-0.080565624
240	0xbfaef8b8	-1.3669653
241	0x3edc5c6e	0.43039268
242	0x3fdcdae3	1.7254299
243	0xbf92863e	-1.1447217
244	0xbed9f29b	-0.42567906
245	0x3d6e04ec	0.058110163
246	0x3ef581e3	0.47950658
247	0xbd146f32	-0.036238857
248	0xbe6f0267	-0.2334076
249	0x3e12e9b6	0.14346966
250	0x3e37e7ec	0.17959565
251	0x3dd128f1	0.10212887
252	0xc04cc1a6	-3.1993194
253	0x405b2601	3.4241946
254	0x3efda4b6	0.49539727
255	0x3e9ce66d	0.3064455

encoder.3.bias f4 [64]
0	0x3db64947	0.08900695
1	0xbd12a95c	-0.035806045
2	0x3df4a941	0.11946345
3	0xbd980cfa	-0.0742435
4	0xbda30107	-0.0795918
5	0xbd6f80fb	-0.058472615
6	0x3dae4bee	0.08510576
7	0x3d30dc5d	0.043178905
8	0xbd857ac0	-0.06517553
9	0x3dd32183	0.10309126
10	0xbdc8d75c	-0.098067015
11	0xbd11d9c6	-0.035608076
12	0xbd81c014	-0.06335464
13	0xbd42889a	-0.047493555
14	0xbdde3a43	-0.10850956
15	0xbc0db416	-0.008648893
16	0xbde179f1	-0.110095866
17	0x3dea5a16	0.11442964
18	0xbdd7c65b	-0.1053588
19	0xbdb7aef2	-0.08968915
20	0x3d637ce8	0.05553904
21	0xbcb89a37	-0.022534473
22	0xbc666ee6	-0.014064526
23	0xbdbdfd59	-0.09276838
24	0x3d5b5c12	0.053554602
25	0xbbcfdfe0	-0.0063438267
26	0x3c8c3fc4	0.01712025
27	0x3dedcb68	0.11611062
28	0xbd3a3fa6	-0.045470856
29	0x3d9e8eae	0.07742058
30	0x3c2f2af4	0.010691393
31	0x3dab1741	0.08354045
32	0xbd5ac9dd	-0.053415168
33	0x3d428cb7	0.047497477
34	0x3d7a3f90	0.061095774
35	0xbd9aaaca	-0.07552107
36	0x3d894baa	0.06703885
37	0xbde3d31b	-0.111242495
38	0xbd880473	-0.066414736
39	0xbdb5cada	-0.088765815
40	0x3d75520a	0.05989269
41	0xbd735f79	-0.05941722
42	0x3d8e2e8a	0.0694247
43	0x3ccf1ebe	0.025283214
44	0xbde5981e	-0.11210655
45	0x3d6969e3	0.056985747
46	0xbc8fb3ac	-0.017541729
47	0xbdafe86a	-0.08589251
48	0xbdabb3c3	-0.08383896
49	0xbdd264f5	-0.10273162
50	0xbcdffcfd	-0.027342314
51	0x3c31de15	0.010856171
52	0xbdb05b1b	-0.08611127
53	0x3db7bdd8	0.08971757
54	0x3cf12859	0.029438185
55	0xbd74ed1f	-0.05979645
56	0xbda3cea1	-0.07998396
57	0x3db47d57	0.08812969
58	0x3dfd91de	0.123813376
59	0xbdf3bdde	-0.11901449
60	0x3d94cbe0	0.072654486
61	0x3d776ee6	0.060408495
62	0xbdd0743b	-0.10178419
63	0x3d9dfaf6	0.077138826

encoder.4.weight f4 [64]
0	0x3ed40142	0.4140721
1	0x409070ab	4.5137534
2	0x3ee0796d	0.4384264
3	0x41027568	8.153664
4	0x407ab805	3.9174817
5	0x40b1ad4a	5.5524035
6	0x3f919bbf	1.1375655
7	0x3f68b2c9	0.90897804
8	0x413f0c62	11.940523
9	0x3f1f37b2	0.6219436
10	0x3e60b103	0.21942525
11	0x3fb92ef3	1.4467453
12	0x3e8dde90	0.27708864
13	0x40302683	2.7523506
14	0x3fdc6ebc	1.7221293
15	0x3ff177b9	1.8864661
16	0x40506df8	3.256712
17	0x3f9acf93	1.2094597
18	0x3eaf6e34	0.34263766
19	0x3fb0786b	1.3786749
20	0x3fbd5e17	1.4794339
21	0x40718ddc	3.7742834
22	0x401f4ef9	2.489195
23	0x402923c0	2.642807
24	0x408911a9	4.283406
25	0x3eed5a07	0.46357748
26	0x40da606f	6.8242717
27	0x408169a6	4.0441465
28	0x3efb2af7	0.49056217
29	0x3ed9d559	0.42545584
30	0x407c99fc	3.9468985
31	0x4089358c	4.2877865
32	0x3ff4446e	1.9083383
33	0x40aaed96	5.341502
34	0x3f46f465	0.77716666
35	0x3feba4af	1.8409632
36	0x40a761e3	5.230699
37	0x4015daf6	2.3414893
38	0x3fdb9822	1.7155802
39	0x408a4a3d	4.3215623
40	0x3fb3cad2	1.4046271
41	0x3f196030	0.59912395
42	0x406bae6b	3.6825206
43	0x405d8456	3.4612021
44	0x40411ec0	3.0175018
45	0x3fc69170	1.5513134
46	0x40a2565c	5.073042
47	0x3f5de1a8	0.8667245
48	0x40de19cd	6.9406495
49	0x3f84fa29	1.0388843
50	0x40e6e2b8	7.2151756
51	0x40565650	3.349018
52	0x3ffd3aa0	1.9783516
53	0x3f875479	1.0572654
54	0x407ced16	3.9519706
55	0x3f310cce	0.69160163
56	0x404bdb13	3.1852462
57	0x3f940512	1.1564047
58	0x3e77e705	0.2420922
59	0x405695d8	3.3528957
60	0x3e907a2f	0.2821822
61	0x4028aae5	2.6354306
62	0x3f0459f7	0.51699775
63	0x3ff3dd08	1.9051828

encoder.4.bias f4 [64]
0	0xbf2b72af	-0.6697187
1	0xc00406e0	-2.0629196
2	0xbf44c6fb	-0.7686612
3	0x3f23bf31	0.6396361
4	0x3f5cbde2	0.8622724
5	0x3eabeb42	0.33577925
6	0xbfa44d9a	-1.2836182
7	0xbf90e0f3	-1.1318649
8	0x3fcdb2c6	1.6070182
9	0x3f134bb1	0.5753737
10	0x3e21218a	0.1573545
11	0x403a3a5e	2.9098125
12	0x3ddbfe50	0.10741866
13	0x3ece52a3	0.40297422
14	0x3f5b96ba	0.85776865
15	0x400b15df	2.17321
16	0xbd8115b3	-0.06302967
17	0x4062ebd3	3.5456436
18	0xbebd1893	-0.3693281
19	0xc02c597e	-2.6929622
20	0xc027128e	-2.6105075
21	0xc06bc6a2	-3.6839986
22	0x3f4ef266	0.8083862
23	0x3f35b57f	0.70980066
24	0xbf7f7d0d	-0.9980019
25	0x3ee5352b	0.44767126
26	0x3f1a5810	0.6029062
27	0xc02e240f	-2.7209508
28	0xbf8dadb1	-1.1068631
29	0x3ed1b87c	0.40961063
30	0xbf9e7683	-1.2379917
31	0xc024a830	-2.5727654
32	0x4038a68b	2.885165
33	0x3f5770fd	0.8415678
34	0x40468ce0	3.1023483
35	0xc03512a0	-2.8292618
36	0xbfa92c31	-1.3216611
37	0x407a365a	3.9095674
38	0xc027b0be	-2.6201625
39	0x3f424769	0.75890213
40	0x4053c5fc	3.308959
41	0xbfaecf6e	-1.3657053
42	0xc0589414	-3.384038
43	0xc017986b	-2.3686779
44	0x40357bdf	2.8356855
45	0x3fef107a	1.8676903
46	0xc0411642	-3.0169835
47	0x3fe1dde0	1.7645836
48	0xbf9fc2aa	-1.2481282
49	0x3f9b05ba	1.2111123
50	0xbfedf1e1	-1.858944
51	0xbf21ae3a	-0.63156474
52	0xbfb5aeb7	-1.4193944
53	0xbfaaad9e	-1.3334234
54	0x3fa2b284	1.2710729
55	0xc006c1e9	-2.1055853
56	0x3e05033e	0.12989518
57	0x40340cf9	2.8132918
58	0x3e054c38	0.13017356
59	0xbf3d9f67	-0.74071354
60	0x3db8793c	0.090074986
61	0x3fb8e181	1.4443818
62	0xbdaad97d	-0.08342264
63	0xc006f14a	-2.108477

encoder.4.running_mean f4 [64]
0	0xc1334ca2	-11.206209
1	0x409c52a9	4.8850904
2	0x40b0465a	5.508588
3	0x4034d190	2.8252907
4	0x3f15eaab	0.585612
5	0xc02213f4	-2.5324678
6	0xc0e4b908	-7.147587
7	0x40d8bd5d	6.7731156
8	0xc013a389	-2.3068564
9	0x4030015c	2.750083
10	0xc161289a	-14.0724125
11	0x41289299	10.53579
12	0xc139b8de	-11.607634
13	0xbf253fa9	-0.6455026
14	0xc04eaaf8	-3.229185
15	0xc072f36f	-3.796108
16	0x3dada6f3	0.08479109
17	0x418cdbfd	17.607416
18	0x407c22f1	3.9396327
19	0xc147073c	-12.439266
20	0xc19a349c	-19.275688
21	0x406c0d81	3.6883242
22	0x3ef02afe	0.469078
23	0xc0b8e787	-5.7782626
24	0xc08112e6	-4.033557
25	0x4169e3f6	14.618155
26	0x40bff1e5	5.998278
27	0x3f967005	1.1752936
28	0x40b8f4ba	5.779874
29	0x4099f9af	4.811729
30	0x3f3163b4	0.6929276
31	0xc021032b	-2.5158184
32	0xbff96f4a	-1.9487088
33	0xc023f9da	-2.5621247
34	0xc106aacf	-8.416701
35	0x40c005a8	6.0006905
36	0x3fa8dfd0	1.3193302
37	0x40d783b9	6.7348294
38	0x3f784322	0.96977437
39	0xbedf9607	-0.4366915
40	0x41374f9a	11.456934
41	0x3f44a45f	0.7681331
42	0xc0ca3f2b	-6.320211
43	0x405f4422	3.4885335
44	0xbf906982	-1.1282198
45	0xc085bbc8	-4.1791725
46	0xbf72ee05	-0.9489444
47	0x414500df	12.312713
48	0xc01d7b63	-2.460656
49	0xbf90bff8	-1.1308584
50	0xc08e3bce	-4.4448004
51	0x400849fd	2.129516
52	0xbd82363b	-0.06358
53	0xc0c0b6bd	-6.022307
54	0x3f6c0a02	0.9220277
55	0x40ddb29a	6.928052
56	0x3f79c936	0.9757265
57	0x4149f075	12.621205
58	0xc160f0df	-14.058806
59	0xc0538135	-3.3047612
60	0xc1320f8e	-11.128798
61	0x3f4f9daa	0.8109995
62	0xc0aa7324	-5.3265553
63	0xc0c9ca17	-6.305919

encoder.4.running_var f4 [64]
0	0x41a6f00c	20.86721
1	0x41bccc1c	23.599663
2	0x4144c07a	12.296991
3	0x424aef48	50.733673
4	0x4163fa5a	14.248621
5	0x428f7641	71.730965
6	0x40ff5c82	7.9800425
7	0x41cc2274	25.516823
8	0x422676c0	41.615967
9	0x406e9f6c	3.7284803
10	0x42086d5f	34.106808
11	0x40df8b47	6.9857516
12	0x42542523	53.036266
13	0x414c918d	12.785535
14	0x41eb1634	29.385841
15	0x40eef924	7.4679127
16	0x419da5d6	19.705975
17	0x40e156dc	7.041853
18	0x410f2838	8.947319
19	0x42347c17	45.12118
20	0x4106263e	8.384336
21	0x424e9193	51.642162
22	0x42305b28	44.08902
23	0x421e77ca	39.61698
24	0x41d34eac	26.413414
25	0x42056fcb	33.359173
26	0x41de152a	27.760334
27	0x41b228e5	22.269968
28	0x420019d6	32.02523
29	0x419237da	18.277271
30	0x41c3b07c	24.461174
31	0x41ef2dfb	29.897451
32	0x41591615	13.567891
33	0x424b7c6d	50.87151
34	0x40b93c10	5.788582
35	0x40ce45ea	6.4460344
36	0x41f60f6e	30.757534
37	0x41b3c09d	22.46905
38	0x40ab230c	5.348028
39	0x427e38ae	63.55535
40	0x40233ca9	2.5505774
41	0x4121c211	10.1098795
42	0x4256a570	53.66156
43	0x41b701e2	22.87592
44	0x41f945b8	31.159042
45	0x410823dc	8.508755
46	0x425172f2	52.36225
47	0x4191818d	18.188257
48	0x423cd182	47.204597
49	0x40b1df10	5.5584793
50	0x431790c4	151.56549
51	0x412881dc	10.531704
52	0x416a1794	14.630756
53	0x410e5381	8.895387
54	0x427998f4	62.39937
55	0x40f3f310	7.6234207
56	0x41e5580c	28.667992
57	0x40642923	3.5650108
58	0x425a05aa	54.50553
59	0x41e4adaa	28.584797
60	0x4276f4fb	61.73924
61	0x418227e1	16.269472
62	0x41dd0877	27.629133
63	0x41ac1da0	21.514465

encoder.6.weight f4 [256, 64, 2, 1]
0	0x3f4e9736	0.8069948
1	0x3fa83e0b	1.3143934
2	0x3ecf301c	0.40466392
3	0xbf869770	-1.0514965
4	0x3f3c3c21	0.7352925
5	0x403989bd	2.8990319
6	0xbf1a2ebc	-0.6022756
7	0xbf5fdf1d	-0.8744982
8	0xbf2414fc	-0.6409452
9	0xbd93cfbe	-0.07217358
10	0xbf070b3d	-0.52751523
11	0xbf898234	-1.074286
12	0x3f185826	0.59509504
13	0x3fb0bbd0	1.3807316
14	0xc013b78a	-2.3080773
15	0xbffba1c9	-1.9658748
16	0xbfd954c2	-1.6978991
17	0x3fd20b83	1.6409763
18	0x3e52fb96	0.20603785
19	0xbf92c95a	-1.1467698
20	0x3dc9ebaa	0.098594025
21	0xbeb5711b	-0.35437855
22	0x40126aea	2.2877755
23	0xbf930d56	-1.1488445
24	0xbe33eaec	-0.17570084
25	0x3e5c2d71	0.2150171
26	0xbd6ef8cd	-0.058342744
27	0x3fc96d15	1.5736414
28	0xbf60a1ad	-0.877467
29	0xbeb8c755	-0.36089578
30	0x3fa8fc0a	1.3201916
31	0x3f9464c8	1.1593256
32	0x3fadecda	1.3587906
33	0x3f0855d4	0.53255963
34	0xbfb04bb8	-1.3773108
35	0x3efb82de	0.4912328
36	0x3f2df2d0	0.6794863
37	0x3ead1d92	0.33811623
38	0xbfaa3e5d	-1.3300282
39	0xbf82fe4f	-1.0233859
40	0x3ff03f36	1.876929
41	0x3f4fa8e7	0.811171
42	0x3f1b05f2	0.60555947
43	0xbf0dcb8b	-0.55388707
44	0xbef3ce0c	-0.4761814
45	0xbdadd277	-0.084874086
46	0x3fcbd9c8	1.5925837
47	0x3f981bd3	1.1883491
48	0x3fb7a07d	1.4345852
49	0x3e5bb528	0.21455824
50	0x3f550151	0.83205134
51	0x3f4c52cd	0.79813844
52	0x3f6f492d	0.9347103
53	0xbfca4127	-1.5801133
54	0xc00df747	-2.2182176
55	0xbf8d549e	-1.1041448
56	0xbfa655c5	-1.2994925
57	0xbed4d1c1	-0.4156628
58	0xbe876ad4	-0.2644869
59	0x3fb5467f	1.4162139
60	0x3f2c4cf6	0.67304933
61	0x3f02ff9e	0.5117129
62	0xbfbe2b6a	-1.4856999
63	0x402b8a2d	2.6803086
64	0x3e89e28c	0.26930654
65	0xbdf5fc3c	-0.120110005
66	0xbf80320a	-1.0015271
67	0xbf5f8e17	-0.87326187
68	0x3e0b9deb	0.1363446
69	0x3f13f65d	0.57797796
70	0xbfd81944	-1.688271
71	0xbe3848ae	-0.17996475
72	0xbeb48ba9	-0.35262802
73	0x3fb4e9c2	1.4133837
74	0xbedf2572	-0.43583256
75	0x3f56d491	0.839181
76	0xbf7ede34	-0.99557805
77	0xbfd0e75e	-1.6320608
78	0xbf2e5588	-0.6809926
79	0xbf7c3a03	-0.9852602
80	0x3e40b60d	0.18819447
81	0x3ef3b6fd	0.47600546
82	0x3e8ea44c	0.27859724
83	0xbfaf3e96	-1.3690975
84	0xbf25da56	-0.6478628
85	0xbf5bc920	-0.8585377
86	0xbf6acc9e	-0.9171847
87	0x3fc6c37c	1.5528407
88	0x3efe4bbe	0.49667162
89	0x3f720c8d	0.945504
90	0x3f7cb4be	0.9871329
91	0x3e7cb4f3	0.24678402
92	0xb901d466	-0.00012381523
93	0x3fc5264f	1.5402316
94	0x3f80426d	1.0020272
95	0xbef80521	-0.48441413
96	0x3f332ee8	0.6999345
97	0x3e2081be	0.15674493
98	0xbcaa60b2	-0.020798061
99	0x3e0d82a5	0.13819368
100	0x3f2f1a92	0.6839992
101	0xbfc476eb	-1.5348791
102	0xbe2180a2	-0.15771726
103	0xbedf0af1	-0.43563035
104	0xbec31ec5	-0.38109413
105	0x3f8761bb	1.05767
106	0xbe909869	-0.2824128
107	0xbffbc05a	-1.9668076
108	0xbfd826ab	-1.68868
109	0xbf9b27a3	-1.2121471
110	0x3f923b79	1.14244
111	0x3ef81704	0.4845506
112	0x3f858ec4	1.0434194
113	0xbeac1bd4	-0.3361498
114	0x3f0d5ac7	0.5521664
115	0xbf2ba72e	-0.6705197
116	0xbea83648	-0.32853913
117	0xbf635a4f	-0.88809675
118	0x3f24fdf0	0.6444998
119	0xbee8fd48	-0.45505738
120	0xbd8edbfe	-0.06975554
121	0x3e895f20	0.26830387
122	0xbf13f318	-0.57792807
123	0xbf2c496e	-0.67299545
124	0xbe4e0cf0	-0.20122123
125	0xbde0577b	-0.109541856
126	0x3fb7339b	1.4312624
127	0xbfd3391d	-1.6501805
128	0xbe9d33f9	-0.30703714
129	0x3db40461	0.08789898
130	0x3f4ceb72	0.8004676
131	0xbe0ad1fc	-0.13556665
132	0x3e8563e7	0.26052782
133	0xbd5fae78	-0.054609746
134	0xbefd2b8d	-0.4944729
135	0xbf640cce	-0.8908204
136	0xbf4bc2d8	-0.7959418
137	0xbf8ac3fd	-1.0841061
138	0xbf542e3a	-0.82883036
139	0xbf375ab3	-0.7162277
140	0x3f72ea72	0.94888985
141	0xbf32a264	-0.6977904
142	0x3e3551cd	0.17706986
143	0xbd6f9d14	-0.05849941
144	0xc0771e5b	-3.8612278
145	0xc08f4690	-4.4773636
146	0xbd8409fc	-0.06447217
147	0x3e40eb8e	0.18839857
148	0x3e6beeb2	0.23040274
149	0x3da74afa	0.081685975
150	0xbf048ab9	-0.51774174
151	0xbf3b0604	-0.73056054
152	0xbe904bf3	-0.28182945
153	0xbdbf371f	-0.093366854
154	0xbd419d39	-0.04726908
155	0x3e7ae4b7	0.2450131
156	0x3e000365	0.12501295
157	0x3f2bcb8d	0.6710747
158	0xbed9c650	-0.42534113
159	0xbf26deb9	-0.651836
160	0x3e974ce1	0.2955084
161	0xbf261e3b	-0.6488988
162	0xbfbae3b3	-1.4600738
163	0xc029aa35	-2.6510136
164	0x3f23aabb	0.6393239
165	0xbe4b49aa	-0.1985232
166	0x3e0f5d0f	0.14000343
167	0xbf32eed0	-0.6989565
168	0xbf50d2b8	-0.8157153
169	0xbe3660ee	-0.17810413
170	0x3ead35e9	0.33830193
171	0x3ec222ae	0.37917084
172	0x3fbed8c8	1.4909906
173	0xbe5e6258	-0.21717203
174	0xbe5fddaa	-0.21861902
175	0xbf08cafc	-0.5343473
176	0xbeb00488	-0.34378457
177	0x3f81dc41	1.0145341
178	0x3ee7d685	0.45280853
179	0x3f88a023	1.067387
180	0x3f071330	0.5276365
181	0xbe2af146	-0.16693601
182	0x3f1bcc28	0.6085839
183	0xbdb18ffb	-0.0867004
184	0xbf048cf5	-0.51777583
185	0x3e854f06	0.26036853
186	0xbecabbbb	-0.39596352
187	0xbfb50629	-1.4142505
188	0x40032d9e	2.0496593
189	0x3f374b40	0.715992
190	0x403b50b2	2.9268003
191	0x3c070e3b	0.008243139
192	0x3f94c298	1.1621885
193	0x3f2cde63	0.67526835
194	0x3f85b5c6	1.0446098
195	0xc0139f04	-2.3065805
196	0x3e7f88c2	0.24954513
197	0xbf80e4fd	-1.0069882
198	0x3f2396cc	0.6390197
199	0xc02fb94b	-2.7456844
200	0xbf064599	-0.5244995
201	0xbdbbaa02	-0.09163286
202	0x3e640b22	0.22269872
203	0xbfe8f508	-1.8199778
204	0xbf0733a1	-0.52813154
205	0x3ee2b38a	0.44277602
206	0xbf19025b	-0.5976922
207	0xbd67f65a	-0.056631424
208	0x3f2f5c3f	0.6850013
209	0x3f291fc6	0.6606411
210	0x3f21b7aa	0.63170874
211	0xbeade0d7	-0.33960602
212	0x3fb59a19	1.4187652
213	0x40147b7e	2.3200374
214	0x3f2d81fa	0.67776453
215	0xbede3010	-0.43396044
216	0x3ea5ba4d	0.323687
217	0x3fecce5d	1.8500477
218	0x40159d90	2.3377419
219	0x3e550672	0.2080324
220	0xbe3588b4	-0.1772793
221	0x4019571f	2.3959424
222	0x3f63d0ed	0.8899067
223	0x3fb310a1	1.398945
224	0x3fc4427d	1.5332791
225	0xbfb1cf22	-1.3891337
226	0xbe311a74	-0.17295247
227	0xbe3eccd6	-0.18632826
228	0xbf539b0b	-0.8265845
229	0x3cf9f49b	0.030512145
230	0xbdc5d5df	-0.09659933
231	0x3f0ea78f	0.55724424
232	0xbf791e27	-0.97311634
233	0x3dce7eba	0.10082765
234	0xbf4fa816	-0.81115854
235	0xbf3bc49d	-0.73346883
236	0x3df66127	0.12030249
237	0x3f6ba335	0.9204591
238	0x3e18569a	0.14876786
239	0xbec839da	-0.39106637
240	0xbeb5300c	-0.3538822
241	0xbde8db2f	-0.11369931
242	0x3e0fc7cf	0.14041065
243	0x3e3f78ec	0.18698472
244	0x3e6a1b4f	0.2286198
245	0xbe115e28	-0.14196074
246	0x3f62d5a4	0.8860724
247	0xbf72842c	-0.9473293
248	0xbe2424ac	-0.16029614
249	0xbe4afb41	-0.19822408
250	0x3f0c9875	0.5492013
251	0xbec544bb	-0.38529
252	0xbe2e61dd	-0.1702952
253	0xbe986cc3	-0.2977048
254	0x3f2a1bb1	0.66448504
255	0x3d159515	0.03651913

encoder.6.bias f4 [256]
0	0x3cddbc2b	0.027067265
1	0x3d89095b	0.066912375
2	0xbd7e330b	-0.062060397
3	0xbbc79f80	-0.006092012
4	0x3c88f2bd	0.01671731
5	0xbc199f9d	-0.009376434
6	0x3d8bb29f	0.06821179
7	0x3daef49a	0.08542748
8	0xbda59570	-0.080851436
9	0x3d7b8b01	0.06141186
10	0x3cd11282	0.02552152
11	0x3d0692b3	0.032854747
12	0xbc4e6f86	-0.012599831
13	0xbd8de2cb	-0.06928023
14	0x3d94c733	0.07264557
15	0x3d8bf821	0.06834436
16	0xbd1f15a7	-0.03883901
17	0x3b036d5f	0.0020054204
18	0x3d9c93ef	0.076454036
19	0x3d8e853c	0.06959006
20	0xbd46c261	-0.048525218
21	0x3d5e9259	0.054338787
22	0xbd6f4003	-0.058410656
23	0x3c803824	0.01565177
24	0xbd283133	-0.041062545
25	0xbc926e25	-0.017874787
26	0x3da09e0c	0.07842645
27	0x3c5fb6ab	0.013654391
28	0x3d10ac83	0.03532077
29	0xbd9e1cc0	-0.077203274
30	0xbce5d8bf	-0.028057454
31	0xbd4a5c10	-0.049404204
32	0xbd379e68	-0.044828802
33	0xbd8da087	-0.06915384
34	0xbda6d6a2	-0.08146407
35	0xbd05098b	-0.032479804
36	0xbda72b76	-0.081625864
37	0x3c86273b	0.016376128
38	0xbc300fdc	-0.010745969
39	0x3d347dd0	0.044065297
40	0xbd0fe66d	-0.03513186
41	0xbd1f2f98	-0.03886375
42	0x39cac73a	0.00038676878
43	0x39e47aec	0.00043579133
44	0xbd8b0808	-0.06788641
45	0x3d26adb2	0.040692993
46	0x3dacc329	0.08435661
47	0xbdafa768	-0.08576852
48	0xbd81e3e7	-0.06342297
49	0xbc130a37	-0.008974603
50	0x3daf53d5	0.085609116
51	0xbc9dfa62	-0.01928443
52	0x3cc2223f	0.02369797
53	0xbc2f9cc3	-0.010718527
54	0xbd9779de	-0.07396291
55	0xbd4afd85	-0.04955818
56	0xbc6cdf99	-0.014457607
57	0x3d75f2c7	0.060045984
58	0x3cb4ed50	0.022085816
59	0x3b5b7057	0.0033483708
60	0xbc5fa3f8	-0.013649933
61	0x3dafd14c	0.08584842
62	0xbd5665dd	-0.05234324
63	0x3ca10df2	0.01965997
64	0xbd72381a	-0.059135534
65	0x3d3f9a6e	0.046778135
66	0xbc9c3e6c	-0.019072734
67	0x3d466ea3	0.048445355
68	0x3bdbddd5	0.006709794
69	0xbd1173df	-0.035510894
70	0x3d4cec3c	0.05002998
71	0x3d98103d	0.07424972
72	0x3da81d77	0.08208745
73	0xbd57ba7e	-0.052668087
74	0x3cfc8293	0.030823981
75	0xbcb225c3	-0.021746522
76	0xbcec58cf	-0.028850941
77	0xbd88f09c	-0.066865176
78	0xbd0146bc	-0.0315616
79	0xbc4a0b8e	-0.012331856
80	0x3da9bc40	0.08287859
81	0xbd35ceaa	-0.044386543
82	0xbceaf4b9	-0.028681146
83	0x3cf20124	0.02954156
84	0x3d9b9e97	0.07598608
85	0x3d0b78d0	0.034050763
86	0x3d2fa72f	0.042884048
87	0x3d5f8b8c	0.05457644
88	0x3c7f7775	0.015592446
89	0xbd354a00	-0.044260025
90	0x3cd8bcb6	0.026457172
91	0xbc2cf080	-0.010555387
92	0x3d8a9f30	0.06768644
93	0xbd596f10	-0.053084433
94	0x3d515655	0.051107723
95	0xbd0179b3	-0.031610202
96	0xbd88a35c	-0.06671783
97	0xbc15be09	-0.009139546
98	0xbb60adee	-0.0034283358
99	0x3bf464aa	0.007458289
100	0x3cde4ef5	0.027137259
101	0xbd188f53	-0.03724606
102	0x3c17414b	0.009231876
103	0xbda6f48f	-0.081521146
104	0xbcb03801	-0.02151108
105	0x3d5e9c3a	0.054348208
106	0xbc738fa8	-0.014865793
107	0xbd471655	-0.04860528
108	0xbda48343	-0.08032849
109	0xbd7d748b	-0.061878722
110	0xbd6c80b1	-0.057739917
111	0xbcc6b1c5	-0.024254689
112	0xbd97c229	-0.0741008
113	0x3d020502	0.031743057
114	0xbc2923dc	-0.010323491
115	0x3be70281	0.007049859
116	0x3ae83cff	0.0017718374
117	0xbdad0e53	-0.08449998
118	0xbd638f6f	-0.05555671
119	0x3d8e441c	0.069465846
120	0x3cbed538	0.02329503
121	0x3a630545	0.0008660148
122	0xbd9010f2	-0.07034482
123	0x3da86e7e	0.082242
124	0xbda5a44e	-0.08087979
125	0xbc9cae13	-0.019125974
126	0xbc61141d	-0.013737706
127	0x3d42254c	0.04739885
128	0xbbea1907	-0.007144097
129	0x3d7cd95c	0.061730728
130	0xbcc80d70	-0.02442047
131	0xbd0e72de	-0.034777515
132	0xbb7757ad	-0.0037741468
133	0x3c6fd827	0.014638937
134	0x3d44e0ef	0.048066076
135	0xbd22144c	-0.039570138
136	0xbd546bc5	-0.05186059
137	0x3d382779	0.04495952
138	0xbc926f22	-0.017875258
139	0xbab9d6a5	-0.0014178349
140	0x3d9a3ec5	0.075315036
141	0xbbefe9a3	-0.007321553
142	0xbd3e008a	-0.046387233
143	0xbcd23390	-0.025659353
144	0xbdb0675d	-0.08613465
145	0xbc6dcd9c	-0.014514353
146	0xbbac3a32	-0.005255961
147	0xbd84883b	-0.064712964
148	0xbd4887cf	-0.048957642
149	0xbcdbcad3	-0.026830113
150	0xbd5cdc00	-0.053920746
151	0x3d8e9ec8	0.06963879
152	0x3c98d3be	0.018655654
153	0x3d18c09b	0.037293058
154	0x3d3b51d8	0.04573235
155	0x3d66049d	0.056156743
156	0xbc1be7a2	-0.009515675
157	0x3cc7a522	0.024370734
158	0xbdaac413	-0.083381794
159	0xbd472eb6	-0.04862853
160	0x3d0c74bc	0.034291014
161	0xbd43a51e	-0.04776489
162	0x3af9aedd	0.0019049306
163	0xbcdd8b86	-0.027044069
164	0xbcd18029	-0.025573807
165	0x3d51a44e	0.051182084
166	0x3d234b7d	0.039866913
167	0x3d95cd34	0.0731453
168	0xbcd61e57	-0.026137514
169	0xbd8ec33b	-0.06970831
170	0xbd07b911	-0.033135477
171	0x3c961bb4	0.018323757
172	0x3d461e3d	0.04836868
173	0xbd947f27	-0.07250815
174	0xbcb7415b	-0.022370031
175	0xbca59a80	-0.020215273
176	0xbc0b6254	-0.00850733
177	0x3d87307f	0.06601047
178	0x3c249031	0.010044144
179	0xbcc3b27d	-0.02388882
180	0xbca48175	-0.020081261
181	0x3c4986ac	0.012300175
182	0x3cce98e4	0.025219388
183	0xbbc089fa	-0.005875823
184	0x3c28c5c6	0.010301059
185	0x3c8b59a3	0.017010516
186	0x3d25f10f	0.040513095
187	0x3c8b3784	0.016994245
188	0xbd8823cb	-0.06647452
189	0xbcbd81e9	-0.023133235
190	0xbd79be97	-0.060972776
191	0x3ca37014	0.019950904
192	0x3d71b13e	0.059006922
193	0xbd85d8bd	-0.0653548
194	0xbd45aaad	-0.048258472
195	0x3d8b0dfc	0.06789777
196	0xbd2d9183	-0.0423751
197	0xbd8931d6	-0.066989586
198	0xbcbe8871	-0.02325842
199	0xbd3f81be	-0.04675459
200	0xbdaed8c8	-0.085374415
201	0xbbead624	-0.007166641
202	0xbd91064f	-0.070812814
203	0xbd0c7eb7	-0.034300532
204	0xbccdd4d3	-0.025125897
205	0x3db0ac88	0.08626658
206	0xbda5d6c5	-0.08097605
207	0xbd336337	-0.04379579
208	0x3d6a8fee	0.05726617
209	0x3c5c9a69	0.013464549
210	0xbda51e8e	-0.080624685
211	0xbda618a7	-0.08110171
212	0xbab575e6	-0.001384434
213	0x3c0b043d	0.008484897
214	0x3d720ae8	0.059092432
215	0x3da2a748	0.079420626
216	0xbc9d84d7	-0.019228382
217	0x3c97a799	0.018512534
218	0x3ca1be7b	0.019744148
219	0xbd3ec1aa	-0.04657141
220	0xbd69189f	-0.056908246
221	0x3d4e5a55	0.050379116
222	0xbbdd2cdc	-0.0067497324
223	0x3d03e34e	0.032199197
224	0xbcb1a6d2	-0.021685991
225	0x3ce6b64f	0.028163103
226	0xbd83c5de	-0.064342245
227	0x3d455726	0.048178814
228	0xbd0c4695	-0.034247
229	0xbc83d6c0	-0.016093612
230	0x3beb1cb0	0.0071750507
231	0xbcd43acd	-0.025906945
232	0x3d7b5b79	0.061366532
233	0x3c3ce58f	0.01152934
234	0xbd7dc243	-0.06195284
235	0x3d00c20c	0.031435058
236	0xbd751038	-0.05982992
237	0x3beb95dd	0.007189496
238	0x3abc9341	0.0014387147
239	0xbdb17151	-0.086641915
240	0x3d0d34b3	0.034474086
241	0xbd174b7e	-0.03693723
242	0x3da949a7	0.08266001
243	0xbd917f7e	-0.07104395
244	0x3d6b432e	0.057437114
245	0x3d474530	0.048649967
246	0x3dad4bd1	0.084617265
247	0xbd6e6f41	-0.05821157
248	0xbd0ff96c	-0.035149977
249	0xbcca3309	-0.024682539
250	0xbc49fd22	-0.012328418
251	0xbdaf269e	-0.085522875
252	0xbc1f0106	-0.009704834
253	0xbd35a7e1	-0.044349555
254	0x3c66f64f	0.0140968105
255	0x3d25ad39	0.0404484

encoder.7.weight f4 [256]
0	0x402d3984	2.7066355
1	0x40047723	2.0697715
2	0x40208c9f	2.5085828
3	0x4038c68c	2.8871183
4	0x4005894d	2.0865052
5	0x3f808844	1.0041585
6	0x3ee8373c	0.4535464
7	0x3ffd65f7	1.9796742
8	0x3fef6477	1.8702534
9	0x4046a6b1	3.103924
10	0x3fd01887	1.6257485
11	0x3fc605c6	1.5470512
12	0x3f8c603f	1.0966872
13	0x401393f1	2.3059046
14	0x4000fa11	2.0152628
15	0x40718f57	3.7743738
16	0x3ef57cf4	0.47946894
17	0x3e95522b	0.29164252
18	0x3f255276	0.6457895
19	0x406d4e3a	3.7078996
20	0x401badfc	2.4324942
21	0x3fb767c4	1.4328542
22	0x3faa11b7	1.3286656
23	0x3fbc4436	1.4708316
24	0x405edaa8	3.4820957
25	0x406a0e79	3.6571333
26	0x402f5f08	2.7401752
27	0x3fc721d4	1.5557199
28	0x3f9e0af8	1.2347097
29	0x40233136	2.5498786
30	0x4018d070	2.387722
31	0x3fa359f3	1.2761825
32	0x40456d46	3.0847945
33	0x40319a38	2.7750378
34	0x3fd236a0	1.642292
35	0x3f76e730	0.96446514
36	0x3fffff38	1.9999762
37	0x40665a5b	3.5992649
38	0x40219edd	2.5253212
39	0x408d035e	4.406661
40	0x3fe18c1d	1.7620884
41	0x3fb8250d	1.4386307
42	0x4089e99d	4.3097672
43	0x3fadf3e7	1.3590058
44	0x401ff1f7	2.4991434
45	0x400fb6a3	2.2455223
46	0x403eb045	2.9795086
47	0x3f24618c	0.64211345
48	0x401e137f	2.46994
49	0x3fc2460c	1.5177627
50	0xbd6e0229	-0.05810753
51	0x402b23c4	2.674058
52	0x4081440d	4.039557
53	0x3fd56608	1.6671762
54	0x3ffde7db	1.9836382
55	0x40120092	2.2812848
56	0x40572836	3.3618293
57	0x3f64f27b	0.89432496
58	0x3e7efbce	0.24900743
59	0x403355e6	2.8021178
60	0x4011e0ce	2.279346
61	0x40082595	2.1272938
62	0x404b9d9e	3.1814952
63	0x402809a9	2.6255896
64	0x3fd6eb69	1.6790591
65	0x408a7643	4.3269362
66	0x3f907f49	1.1288844
67	0x3eddead3	0.4334322
68	0x3fd29c4f	1.6453952
69	0x40467bf2	3.101315
70	0x403714dc	2.8606482
71	0x4063acb2	3.5574155
72	0x3eef4f80	0.4674034
73	0x4095e5ce	4.6843023
74	0x404ebc46	3.2302413
75	0x40080612	2.1253705
76	0x3e3bf063	0.18353419
77	0x3f2cb3a7	0.6746163
78	0x3fb57661	1.4176751
79	0x3e08c71a	0.13357201
80	0x40054a67	2.0826662
81	0x40218961	2.52401
82	0x3f90ba99	1.1306945
83	0x404098be	3.0093226
84	0x4035b2fe	2.8390498
85	0x4021ae3f	2.5262601
86	0x40333946	2.8003707
87	0x40185f4e	2.380817
88	0x4005439f	2.0822523
89	0x4014ddaf	2.3260305
90	0x3fc58f43	1.5434345
91	0x40399ca6	2.900186
92	0x3ef274b1	0.47354653
93	0x404afd03	3.1716926
94	0x3f465607	0.7747502
95	0x3f93a573	1.1534866
96	0x4037d5de	2.8724284
97	0x3fffd9ec	1.998838
98	0x40179622	2.3685384
99	0x3fa338e1	1.2751733
100	0x3f80fd50	1.0077305
101	0x406a6947	3.6626756
102	0x40138bdd	2.3054116
103	0x4031bf8c	2.777316
104	0x4049da56	3.1539512
105	0x3ea3ef7e	0.32018656
106	0x407269a5	3.787698
107	0x3f41c71f	0.7569446
108	0x401dcaa5	2.4654934
109	0x4014d94f	2.3257635
110	0x3f4297b7	0.7601275
111	0x3fa0aadc	1.2552142
112	0x3f95ee3c	1.1713328
113	0x400f4fef	2.2392538
114	0x4019265f	2.392967
115	0x403d221f	2.9552076
116	0x4022d783	2.5444038
117	0x406964f9	3.646788
118	0x3e90ee6e	0.28306907
119	0x401501e6	2.3282409
120	0x3fa13121	1.2593118
121	0x3f9393c7	1.1529473
122	0x3fdf5d3f	1.7450331
123	0x3fd48879	1.6604148
124	0x3fdf1f62	1.7431452
125	0x4030ad3e	2.7605739
126	0x402ca173	2.697354
127	0x40406e7f	3.0067441
128	0x403356ee	2.8021808
129	0x3f6698d0	0.90076923
130	0x3f69add7	0.91280884
131	0x3fdaf787	1.7106789
132	0x402c33e9	2.6906683
133	0x400dc190	2.214939
134	0x40327f9e	2.7890391
135	0x400cb28b	2.1983974
136	0x404972fd	3.1476433
137	0x3ff85a19	1.9402496
138	0x4028a5f7	2.6351297
139	0x3fe4562a	1.7838795
140	0x40019e54	2.0252886
141	0x3f758e2c	0.9592006
142	0x4036d2ac	2.8566084
143	0x3f9d8af6	1.2308033
144	0x402ead9f	2.729347
145	0x40779912	3.8687177
146	0x3f6e8cd3	0.9318363
147	0x3e3d469f	0.18483971
148	0x4043f62f	3.0619009
149	0x402f69cf	2.740833
150	0x40129ee5	2.2909482
151	0x3fdde635	1.7335879
152	0x3fe0d6f1	1.7565595
153	0x400e173f	2.2201688
154	0x404f915b	3.2432468
155	0x3fbfc3c0	1.4981613
156	0x3fe11696	1.7585018
157	0x3fb1cfc9	1.3891536
158	0x3fe593f9	1.7935783
159	0x3fdb1378	1.7115316
160	0x3eb8752c	0.36026895
161	0x3e544d10	0.20732522
162	0x3fd52cc3	1.6654285
163	0x4017ba07	2.3707292
164	0x400866b1	2.1312678
165	0x4027850c	2.6174955
166	0x3fe9307f	1.8217925
167	0x404fc733	3.2465332
168	0x400675a1	2.1009295
169	0x3e6e41f7	0.23267351
170	0x400329d9	2.0494292
171	0x3ffb7e8e	1.9647996
172	0x3fe11863	1.7585567
173	0x3eb9f21c	0.36317527
174	0x40882eae	4.255698
175	0x4030d252	2.762837
176	0x4025fdef	2.5936239
177	0x3f8ffdb5	1.12493
178	0x404ad87f	3.1694639
179	0x3ff3f249	1.9058315
180	0x401fdd1f	2.4978712
181	0x3fd286bd	1.6447369
182	0x404c9d4f	3.1971014
183	0x3f83198c	1.0242171
184	0x3ffb422a	1.9629567
185	0x3ff9fb27	1.9529771
186	0x3f218334	0.63090825
187	0x3fce7c95	1.613177
188	0x3ea26f22	0.31725413
189	0x4026b2b7	2.604658
190	0x4004036e	2.0627093
191	0x40440a4f	3.0631292
192	0x40076505	2.1155407
193	0x3f6cc95e	0.9249476
194	0x406e80dc	3.726615
195	0x3eb5adf0	0.35484266
196	0x3fa5a2d5	1.2940317
197	0x4000228a	2.002108
198	0x3fb30947	1.3987206
199	0x401024d6	2.2522483
200	0x4008e4a2	2.1389546
201	0x402f3bef	2.738033
202	0x3f258423	0.6465475
203	0x4039cd87	2.9031694
204	0x4069e7ec	3.6547804
205	0x3f127940	0.5721626
206	0x3fdb4cfa	1.7132866
207	0x401025ea	2.252314
208	0x3fd3004a	1.6484463
209	0x3f894a33	1.0725769
210	0x401d6a8a	2.4596276
211	0x3f95001e	1.1640661
212	0x406100b3	3.5156677
213	0x4042b7d5	3.0424702
214	0x3f88f235	1.0698916
215	0x403beea4	2.9364405
216	0x40162b60	2.3463974
217	0x40303175	2.7530186
218	0x3f569f7a	0.8383709
219	0x3fd21ffc	1.6416011
220	0x3fc2a463	1.5206417
221	0x3fbe9d77	1.4891804
222	0x40196373	2.396695
223	0x3f7cfb06	0.9882053
224	0x40534141	3.3008578
225	0x404c2d76	3.1902747
226	0x3f92adbf	1.1459273
227	0x407ee1c6	3.98253
228	0x404606c1	3.0941622
229	0x4029f0e0	2.6553268
230	0x3f33584b	0.700566
231	0x3f8cad44	1.0990376
232	0x3fad6691	1.3546926
233	0x3fe74328	1.806737
234	0x40237db1	2.5545466
235	0x404e4fa2	3.2236104
236	0x402bb3da	2.6828523
237	0x4032a08a	2.7910485
238	0x40515e77	3.2713907
239	0x3feaf2d7	1.8355359
240	0x3fe2ab8f	1.7708606
241	0x4008aaca	2.1354241
242	0x40028277	2.039213
243	0x402a26ad	2.6586106
244	0x4088cb73	4.274835
245	0x402b9da5	2.6814969
246	0x3f630734	0.88682866
247	0x4015f584	2.34311
248	0x401b8739	2.4301283
249	0x4008d1fe	2.137817
250	0x3fe573eb	1.7926
251	0x4022bed6	2.5428977
252	0x40031a82	2.048493
253	0x3f09ab32	0.5377685
254	0x3f1e797e	0.6190413
255	0x3f0cc6df	0.54990953
